examples/ONOdes-Cifar10.pth (torch, 845213 bytes, 24 tensors)

0.weight f4 [64, 3, 3, 3]
00000000: 1895 763d bacd 21bd 2e7c d2bd d070 163e
00000010: 4e71 d1ba 9636 09be 7e14 bd3d 363d eb3c
00000020: e78b e7bd f58a af3d ce80 5fbd be11 41be
00000030: 6fef 403e bd1a d03b ba27 54be 660d 083e
00000040: 6b2e 093d e558 37be 7e3a 203e e236 6abc
00000050: 701d 34be da22 7d3e 3a06 043d 8706 45be
00000060: 0f99 2d3e 9f77 203d df2c 27be a5fe 313d
00000070: 8d8e 0f3f b067 92bc 2c70 00bc 331e 85bf
00000080: 6aaa 683e 2b61 093e a54b a4be 3921 af3e
00000090: 6e70 a5bd 7ea0 b13e 983a 1ebd 17a2 013d
000000a0: 2d26 7cbf c292 a33e 5202 8f3e 0cdd febd
000000b0: c32c bf3e 1ef9 58bd 435c fe3e 1255 0dbe
000000c0: 932d b03d 32be 39bf 940a 953e 16a7 a83d
000000d0: c738 61be 9239 753e 40eb 8cbe 1c52 6fbe
000000e0: 23c0 203d b139 d43c 8d85 3f3e 44b6 c4bd
000000f0: fb1e 853e 7062 b13e 1598 33bd 296f 9bbe
00000100: dbb5 43be 122b c63d 67fc 33bd 18bc 0c3e
00000110: 82b5 f1bd 6303 313e e4c9 6f3e 344f ecbd
00000120: fd37 ccbe 093b 56be 8937 823e c999 1fbe
00000130: f153 d03d cc23 083d 62f2 e63d 10de 893e
00000140: 1371 123d 40cb a2bd d531 cdbd ef65 c63d
00000150: 0cfc 4a3e bd8e 6c3d 57f5 a63e b02d 94be
00000160: 74ec e8be a078 f1bd f304 e7bd 9552 15be
00000170: 8368 d23d 4808 2c3e bf97 483c 5ddd a93e
00000180: d7ef 5abe 7dd6 bfbe b565 b23c 51f9 37be
00000190: 963e 3bbe 8787 013e af5f a83d 405e 0ebd
000001a0: 1fad af3e e118 80be 3404 c6be db94 593d
000001b0: 083f 5ebd 46f8 343c 93e3 133a 29c7 863e
000001c0: f7b1 b83e 4df1 8d3e d000 0e3e 666d 453e
000001d0: 8238 213e 8cc6 d23d 3380 9e3d 2604 bb3d
000001e0: 4884 303e 5fb0 333e 3383 3d3e 187a 853d
000001f0: 0ad1 763d 2d38 f73d 76cd 9cbd f7b7 42be
00000200: 9308 d1bd 502a 23be 7958 9dbe f55f 56be
00000210: 3f99 69be 07d8 bdbe 8798 74be 5794 72be
00000220: 7829 66be 6e88 c6bd 9abb 1cbe bd04 3abe
00000230: 882c b8bd bac1 c1bc 2a9c 1bbd 6072 183d
00000240: 186c 47be 6d73 37be 8e5e 2abe 35aa c8bd
00000250: e7f6 d2bd 3301 0cbe 8abe 47bc 4122 c0b9
00000260: d1cb dfbc 3ed8 043e 8b04 403e 0d1a f03d
00000270: 6091 993e b08d ae3e de84 633e 96e3 bd3e
00000280: 70c9 d03e 1e39 9f3e af7a 1abe 55b1 64be
00000290: 421e 0dbe c70c 13bd 4a1b 95bd a973 2bbc
000002a0: 1414 d13c 1e50 6e3d df9d 6c3d 647d 23be
000002b0: ae86 44be 0895 f7bd 1acc a5bd 4565 c4bd
000002c0: 1227 75bd 8fd1 8abd dbbd 08bd 344a 5abd
000002d0: 518f c8bd b04e 09be 3004 8cbd 4ddc 51bd
000002e0: ac61 91bd 6670 17bd f867 72bd e9b0 05bd
000002f0: a7c0 49bd d1d5 983c 15de 873c b628 f93c
00000300: 5f9e 883c 6898 673c a556 c33c 16fa 103c
00000310: 20e5 343c 3bb4 a03c f361 853d 8628 8a3d
00000320: fab5 ab3d 7de5 3e3d 9200 4c3d decd 843d
00000330: a43a cf3c bb40 083d 029c 473d 2358 b93d
00000340: d9f2 b13d 6784 ce3d 3d80 833d 382f 843d
00000350: 5447 a43d b4d8 143d 997f 403d 689d 8a3d
00000360: fadc 95bd a8cc aebd 2c44 c6bd ad80 3ebd
00000370: 77fd f3bb c459 373c 077e 4cbd 3ed8 bdbb
00000380: c695 a03c 5b77 7fbc a4de 61bb 9821 d5bc
00000390: d5fc c43c 69e9 c23d 7fe9 df3d 4d52 8c3c
000003a0: 5f2a ba3d 9580 f03d f250 fdbd 7a2f 19be
000003b0: 0efd 2cbe 4130 02be cdba f3bd 3c60 c1bd
000003c0: 8e63 12be cbd4 14be 0246 cbbd d196 0cbd
000003d0: 9a46 ad3d 20da 2e3e 1d98 ef3d b436 e33d
000003e0: d528 1a3e 225a b23e 0106 303e 2440 ac3d
000003f0: 5268 bbbe 23d8 aebe df0a 40be 214b c4be
0.06020078 -0.039502837 -0.10277592 0.14691472 -0.0015979202 -0.13399729 0.09232424 0.028715711
-0.11305981 0.08571426 -0.054566197 -0.18854424 0.18841337 0.0063508437 -0.2071828 0.13286361
0.033491533 -0.17905004 0.15647313 -0.014295312 -0.17589355 0.24720326 0.0322325 -0.19240771
0.16952918 0.03917658 -0.1632571 0.04345574 0.5607689 -0.017871708 -0.007839244 -1.0399841
0.22721258 0.13415973 -0.32088962 0.34205034 -0.08078085 0.34692758 -0.038630098 0.03164872
-0.9849575 0.31947905 0.27931458 -0.12444505 0.37338838 -0.05297195 0.49679765 -0.13801983
0.086024426 -0.7255584 0.29109633 0.08234994 -0.21994315 0.23947743 -0.27523232 -0.23371166
0.039245736 0.025906416 0.1870329 -0.09605077 0.260002 0.34645414 -0.04384621 -0.30358246
-0.19112341 0.09676184 -0.04394188 0.13743627 -0.11802198 0.17286448 0.23416859 -0.11538544
-0.39886466 -0.20920958 0.25432995 -0.15586008 0.101722606 0.033237264 0.112766996 0.26927233
0.035752367 -0.07948923 -0.1001927 0.09687411 0.19822711 0.057753313 0.32609054 -0.28941107
-0.454929 -0.117905855 -0.11280241 -0.14582284 0.1027384 0.16800034 0.01224321 0.331767
-0.21380554 -0.3746833 0.021777013 -0.179662 -0.18285593 0.12649356 0.08221375 -0.034757853
0.34311768 -0.2501898 -0.38675082 0.053120475 -0.05425933 0.011045521 0.0005641516 0.26323822
0.36073276 0.2772316 0.13867497 0.19280013 0.15744212 0.10291776 0.07739296 0.091316506
0.17237961 0.17547749 0.1850708 0.06517428 0.06025795 0.120712616 -0.07656376 -0.1901549
-0.102067135 -0.1593411 -0.30731562 -0.20935042 -0.22812365 -0.37078878 -0.2388631 -0.236894
-0.22476757 -0.09693991 -0.1530594 -0.1816587 -0.08992869 -0.023651946 -0.037990727 0.03721845
-0.19474828 -0.17915125 -0.16637632 -0.097980894 -0.10300999 -0.13672332 -0.012191424 -0.00036646615
-0.027318867 0.12973115 0.18751733 0.11723719 0.29993725 0.34092474 0.22218654 0.37087697
0.40778685 0.31098264 -0.15085863 -0.22333272 -0.13781074 -0.035900857 -0.072805956 -0.010464587
0.02552227 0.058181874 0.057767745 -0.15965801 -0.19192001 -0.12088972 -0.0809557 -0.09589628
-0.059851713 -0.067782514 -0.033384185 -0.053293422 -0.097929604 -0.13408923 -0.06836736 -0.051235486
-0.070987076 -0.036972426 -0.059181184 -0.032639418 -0.049255993 0.018656643 0.01658539 0.03041492
0.01667708 0.014135458 0.023845026 0.008848688 0.011040956 0.01961719 0.06512823 0.067460105
0.08384319 0.046605576 0.04980523 0.064845785 0.025296517 0.033264857 0.048732765 0.09050014
0.08688898 0.100838475 0.06420944 0.06454319 0.08021417 0.036339477 0.046996687 0.06768304
-0.073175386 -0.08535129 -0.096809715 -0.046509434 -0.007445987 0.011190835 -0.049924877 -0.0057936003
0.019602668 -0.015592421 -0.003446498 -0.026016995 0.024046341 0.09517176 0.10933208 0.017129088
0.09090113 0.11743275 -0.12368955 -0.14959517 -0.16893408 -0.1271372 -0.11900864 -0.094421834
-0.1429579 -0.14534299 -0.09925462 -0.034323517 0.08460732 0.17075396 0.11698935 0.11094418
0.15054639 0.3483439 0.1718979 0.08410671 -0.36603028 -0.34149274 -0.18754147 -0.3833857

0.bias f4 [64]
00000000: 29a0 53be 2da0 533e 1f65 373d 7664 37bd
00000010: 954c 7b3e 734c 7bbe c0a7 a13e d1a7 a1be
00000020: 81a2 36bb 92aa 363b 3d64 203d 1864 20bd
00000030: 09fb 35b5 eae2 5a35 19eb 29bd f0ea 293d
00000040: 4244 17bb 023c 173b a6e7 033f 9ee7 03bf
00000050: 750f 0339 bb06 02b9 5def 0d3b b1e9 0dbb
00000060: 46b5 1e3a 63c3 1eba a9b6 4fbd 4ab6 4f3d
00000070: eddd 14be e2dd 143e 273d 85b9 d06a 8539
00000080: b362 b6bd a962 b63d f701 1c3e 1b02 1cbe
00000090: 2a43 37b9 5e31 3639 f5fe e9b9 eb8c ea39
000000a0: 15cc e7be 16cc e73e 8f88 d939 5a19 dab9
000000b0: d673 193d d873 19bd 07c4 6e3d fbc3 6ebd
000000c0: 5fe3 db3b 94df dbbb 72c0 863d 52c0 86bd
000000d0: 1c38 613e 1338 61be 8205 cbb8 d621 c938
000000e0: e825 18bd cb26 183d 1364 74bd 3863 743d
000000f0: 8b24 f93d 9724 f9bd 8e5b 0a3c df57 0abc
-0.20666565 0.20666571 0.04477417 -0.04477354 0.24540932 -0.24540882 0.31573296 -0.31573346
-0.0027867856 0.0027872664 0.039158095 -0.039157957 -6.779306e-07 8.154153e-07 -0.041483972 0.04148382
-0.0023081456 0.002307654 0.5152534 -0.51525295 0.00012498892 -0.00012400273 0.0021657564 -0.0021654184
0.00060542335 -0.00060563366 -0.050711308 0.050710954 -0.14537783 0.14537767 -0.000254133 0.00025447318
-0.08905544 0.08905537 0.15235125 -0.15235178 -0.0001747726 0.00017375263 -0.0004463118 0.0004473695
-0.4527289 0.45272893 0.0004149121 -0.0004159909 0.037463985 -0.037463993 0.058292415 -0.05829237
0.0067104544 -0.006710002 0.06579675 -0.06579651 0.2199406 -0.21994047 -9.68082e-05 9.590729e-05
-0.037145525 0.03714637 -0.05966575 0.059664935 0.12165173 -0.12165182 0.00844468 -0.008443802

1.weight f4 [64]
00000000: a7a2 213f cf96 2f3f 4c94 f13e 0855 8e3f
00000010: edd2 b83e 01ff d83e 3c49 313f 6bd1 633e
00000020: 5e58 053f 1d45 df3e b09c aa3e 4a47 463e
00000030: b97f b636 3683 2635 59fe b03e b2a8 b13e
00000040: 0a3f dc3a c3e1 113a 2a2b b23e 44df a93e
00000050: cb22 233b 8b86 b33a d830 ed3c c5e4 4139
00000060: 7e65 4039 dc58 383a d71e 383e 3675 5c3d
00000070: 3016 293f bd5e 073f d91d 813e 16f7 0b3f
00000080: 77f0 933f 563e 2f3f 9a26 3b38 6893 7e3f
00000090: 30d9 7d37 23e9 1e39 12fc 1c3c b25e ad3a
000000a0: 492b 903e a2d3 c33e 8e61 7c3b 15e5 c43a
000000b0: 71e9 083e 21c4 a93e fa8a 963e a871 ff3e
000000c0: b161 873b 71c9 443c 7456 8c3e 68f7 f83e
000000d0: 0e10 ac3e 28a1 973e 2c51 623a a196 d739
000000e0: 1a8d 9c3e f8a1 d03e da22 1b3e ed50 693e
000000f0: e9f7 0d3f aacd a93e da36 3739 e495 a73c
0.6313881 0.6858949 0.47183454 1.11197 0.36098424 0.42382053 0.6925237 0.22247855
0.5208796 0.43607417 0.33322668 0.19363132 5.4388915e-06 6.2030756e-07 0.34569052 0.34699017
0.0016803455 0.0005564952 0.34798557 0.3317815 0.0024892564 0.0013696713 0.028953955 0.00018491138
0.00018348356 0.0007032284 0.17980514 0.05382272 0.6604948 0.52878934 0.25218084 0.546739
1.1557759 0.6845449 4.4620225e-05 0.99443674 1.5130543e-05 0.00015154904 0.009581583 0.0013227074
0.28158024 0.382474 0.0038510296 0.0015021885 0.13370301 0.33157447 0.29402906 0.498914
0.004131519 0.012010918 0.27409708 0.48626256 0.33606 0.2961514 0.00086333114 0.00041120223
0.30576402 0.40748572 0.15150014 0.22784777 0.55456406 0.33164722 0.00017472674 0.020457216

1.bias f4 [64]
00000000: 0499 d63d 57d6 81be 2951 38be e0c2 febe
00000010: 1f92 45be 5f26 603e 07f0 b1bd c405 87bd
00000020: 4320 c43d b7a6 57be 3e61 fcbd b751 343d
00000030: 1979 ecb6 afbf 69b6 354d eebc 6f31 d8bd
00000040: 56c5 55ba b241 58ba 8ba6 24be 5e89 23be
00000050: ace5 a2ba a000 0dbb 825e d2bc bdcb 78ba
00000060: b3d3 27ba 5904 deb9 bab2 babd a7c5 00be
00000070: e1d1 11be 9cbb 13be 7a38 f3bd 108b 813e
00000080: 2b05 d2be b492 89be c2fb 23b8 0d23 59be
00000090: 1676 04b8 ccf8 d0b9 108b 09bc 7a8b 65bb
000000a0: f2f5 3fbb 02d3 e6bd fbec 2dbb 54e6 6dbb
000000b0: a4b8 68bc 3389 d5be e66c 233e cd69 2dbe
000000c0: ae1a 06bc ec69 78bb 6e78 a63d 0cc0 6abe
000000d0: a26e 0abe 4007 533d 55a3 8eba dfc2 80ba
000000e0: b1b5 2d3e ccfa 5bbe 243e 93bd baae abbd
000000f0: 2b2d 14be 3dd1 783e 248b b3b9 a519 18bc
0.10478404 -0.2535884 -0.1799971 -0.49758053 -0.19294022 0.21889637 -0.0868836 -0.065928966
0.09576466 -0.2105969 -0.12323235 0.04402324 -7.0474457e-06 -3.483128e-06 -0.02908955 -0.10556304
-0.00081547105 -0.00082495355 -0.16079156 -0.1597037 -0.0012428067 -0.0021515265 -0.02567983 -0.00094908086
-0.000640209 -0.0004234638 -0.09116121 -0.12575398 -0.14240219 -0.14427036 -0.118760064 0.2530141
-0.41019568 -0.26869738 -3.9096696e-05 -0.21204777 -3.158123e-05 -0.0003985822 -0.0083949715 -0.0035025761
-0.0029290882 -0.11270715 -0.0026538956 -0.0036300616 -0.014204178 -0.41706237 0.1595951 -0.16934891
-0.008185072 -0.0037904931 0.08128439 -0.22924823 -0.13518766 0.051520586 -0.0010882417 -0.0009823701
0.16963841 -0.2148239 -0.07189587 -0.08382936 -0.14470355 0.24298568 -0.00034245208 -0.009283458

3.weight f4 [64, 64, 4, 4]
00000000: 23fb 803d cc46 94bd 126d 2fbd 6d76 563d
00000010: 7d00 8b3d ebdc 29bd 810e 6dbd dc5c ad3d
00000020: 5e85 283d 3d40 debc 7705 3ebd fea2 a73d
00000030: 5941 6e3c e065 4ebd b489 57bd d5a6 a43d
00000040: 0b21 2d3e 0e04 72be 42d9 d03d e1a6 b5bd
00000050: 8d37 783e cef7 e9be 65e3 463e 845f cfbd
00000060: 4d3f 4b3e 94b2 ccbe ec5b 613e ff31 f73c
00000070: da84 843d 208d 72be 4878 7b3d 1c22 953d
00000080: 767f 1f3d 37bd a73c a39a a9bd 6896 493d
00000090: 9aa3 ecbb 9f7c b43d a668 b8bd 9e77 463d
000000a0: a236 2fbd bda2 c33d 64bf fbbd 720a 40bd
000000b0: 817a 12bd 5f73 1a3e 01e1 a7bd f042 a0bd
000000c0: bb3f 01be 94fc 553e e2b1 23be 8aa2 9fba
000000d0: a00d 0fbe 883b 6e3e 41c1 1ebe 891a b13c
000000e0: 9f17 12be a90c 8c3e f4be edbd c7b8 e43b
000000f0: 369a 03be d814 833e 373b 75bd f6df 633c
00000100: 1964 e33b 3fb8 82bb ef06 4a3b e801 7d3a
00000110: a6a7 f13b 3e41 84bc ce8b 0ebc f9d1 03bd
00000120: e4ed fc3c 4a58 143b b88e 9c3b 3974 99bc
00000130: 3499 393c a753 463c 0d10 7e3c 9873 2bba
00000140: d8c1 623c 2d59 08bd aaaf d6bc 76fd 393c
00000150: e200 e93c 42ae f3bc f1be 88bc 5329 8f3c
00000160: 4ed2 893c 38b7 e1bc 7703 27bc f7f5 0f3c
00000170: c0de 463a 21a9 40bc e99b 2abc 0f1a bdbb
00000180: aaa2 ebb9 7b21 28bd a19b 153a 7e20 0bbc
00000190: 5dab 913b 7174 23bd 3026 b03c a6db 303c
000001a0: 58e2 e5bb 8ced 88bd 07d0 253c 4494 1aba
000001b0: a11a 673b 80b7 90bd df6c 1e3c 9838 3aba
000001c0: 16c2 c5bc fe15 fdbb 9b7d 98bb da75 b1bb
000001d0: fdfc b9bc 6603 97bc 287c 32bc b560 4fbc
000001e0: 2de7 3bbc 124f 2ebc 1677 1eba 5c94 beba
000001f0: d221 a3bb 752c a5ba 9b62 dc3b d8b6 dc3b
00000200: 738d 3c3d 0ca0 13bd 7061 3bbc ad88 e33b
00000210: 576e 383d fde3 19bd 3623 e1bc 13a0 1d3a
00000220: ed55 233d 6ec0 36bd ba67 1dbd a90e 99bc
00000230: 3d9f 263d cd31 17bd 5604 c9bc 3373 2dbc
00000240: bd9c 343d 6ce3 dabb 2a76 58bc 2bd4 fabc
00000250: 669b e03c 9873 c2bb 7c5a c8bb 5335 1fbd
00000260: f6bf 783c 7041 fcb8 bb28 09bc 8c7a cebc
00000270: a9e0 3ebd a9e5 a7bc 4337 96bb 3334 1bbd
00000280: 9a38 4a3c e24e 5dbc 8374 feb9 5acd edbc
00000290: 3b09 31bd a5d4 863b e4ee 23bc 8241 57bd
000002a0: 5666 cdbb 32f3 0c3d 7a4f 13bd 1730 08bd
000002b0: c698 9a3b d059 af3a 7bbd 9e3b 1412 1dbc
000002c0: 1e1b 8cbc bd58 babb 5000 9cbb 72ac 773c
000002d0: dbd5 59bc e674 b7bc cd03 c2bc cc18 f4b8
000002e0: 1480 703b 26fd 89bb 1501 a4bb b8d0 24bb
000002f0: d680 c53b c705 7cbc 39ec 4dbc 519f 183c
00000300: 81b3 a733 4ce0 9b33 90f4 16b3 0b22 3334
00000310: 5f73 c0b3 ea26 36b4 0286 2cb4 b206 8433
00000320: 9c03 94b4 c810 7cb4 5a7f 55b4 9467 1134
00000330: 0d95 88b4 5eb3 65b4 494f fbb3 78a1 cd33
00000340: 0781 6833 9f32 86b4 ae0d 1cb5 e231 17b3
00000350: dcb9 0ab4 7df9 02b4 6be6 f4b4 664b 7534
00000360: 1d05 5eb4 0ff1 54b4 03e1 4eb5 4238 be34
00000370: 5ec7 21b4 c51f e7b1 f21c e2b4 c95c 3a33
00000380: 0fb5 f2bb 8261 e9bc 36c4 6cbc bba7 63bc
00000390: 9816 2f3c c452 7fbc 6647 3b3b b094 dd3b
000003a0: 14c0 be3c 9c15 e2b9 e119 9d3c 8999 c33c
000003b0: 8bb6 983c fde7 d9ba 348d 863c 77c7 983c
000003c0: 7a8d 49bd 02f5 4abd 3ba0 6cbb 8c12 ec3b
000003d0: afc9 82bb d712 bbbc 3e52 d73c e1ac 233d
000003e0: 9298 1cbc 9393 74bc 8405 bf3b 4680 dd3c
000003f0: d9c2 833a 9d28 da3b bb85 6db9 2600 d93a
0.062979005 -0.07240066 -0.042828627 0.052359033 0.067872025 -0.04147045 -0.05787516 0.08464977
0.041142814 -0.02713024 -0.04639193 0.08185385 0.014541947 -0.050390124 -0.05262156 0.08039633
0.16907136 -0.23634359 0.10197689 -0.0886972 0.24239941 -0.45696872 0.19422682 -0.1012564
0.19848366 -0.39979994 0.22007722 0.030175207 0.06470652 -0.23686647 0.061394006 0.072818965
0.038939916 0.020475967 -0.08281448 0.049215704 -0.0072216513 0.08812832 -0.09004335 0.04845392
-0.04277671 0.09552524 -0.12292364 -0.04688496 -0.03576136 0.15083073 -0.08197213 -0.07825267
-0.12621967 0.20897132 -0.15985826 -0.0012179178 -0.13970041 0.23264897 -0.15503408 0.021619098
-0.14266823 0.2735341 -0.11608687 0.006980035 -0.12851796 0.2560184 -0.059870925 0.013908377
0.006939423 -0.003989249 0.0030826887 0.0009651468 0.0073747216 -0.016144391 -0.008700324 -0.032182667
0.030875154 0.0022635632 0.0047777556 -0.018732177 0.01132803 0.012104905 0.0155067565 -0.0006540357
0.013840161 -0.03328817 -0.02620681 0.011351934 0.028442804 -0.029746179 -0.01669261 0.01747576
0.016823914 -0.027553186 -0.010193697 0.00878667 0.0007586293 -0.0117590735 -0.010413148 -0.0057709287
-0.00044943887 -0.041047554 0.00057070894 -0.008491633 0.004445477 -0.03990597 0.021502584 0.010794556
-0.0070155077 -0.066859335 0.010120398 -0.0005896727 0.0035263675 -0.0706625 0.009669512 -0.000710377
-0.024140399 -0.007723569 -0.004653645 -0.0054156603 -0.022703642 -0.018434238 -0.010893859 -0.012657334
-0.011468691 -0.010638969 -0.0006044967 -0.0014540064 -0.004978397 -0.001260175 0.006725622 0.006735664
0.046033334 -0.036041304 -0.011436805 0.0069437833 0.045027103 -0.037570942 -0.02748261 0.00060129276
0.039876867 -0.04461711 -0.038429 -0.018683748 0.040679205 -0.036912728 -0.0245382 -0.010586548
0.04409479 -0.006679943 -0.013211766 -0.030618748 0.02741785 -0.00593419 -0.006114302 -0.038869213
0.015182486 -0.00012028485 -0.008371527 -0.02520492 -0.04660097 -0.020495253 -0.0045842244 -0.037891578
0.012342596 -0.013507577 -0.00048533463 -0.029028583 -0.043221693 0.0041147047 -0.010005686 -0.052552707
-0.006268303 0.034411617 -0.035964467 -0.033248987 0.004717919 0.0013378207 0.004844365 -0.00958683
-0.017102774 -0.005686848 -0.0047607794 0.015116798 -0.013295616 -0.022394609 -0.023683453 -0.000116394454
0.0036697434 -0.004211086 -0.005005012 -0.002514882 0.0060273213 -0.015382237 -0.012568527 0.009315328
7.809195e-08 7.258549e-08 -3.5147025e-08 1.6683059e-07 -8.9616826e-08 -1.6964228e-07 -1.60675e-07 6.147947e-08
-2.7569774e-07 -2.3475434e-07 -1.9883501e-07 1.3541859e-07 -2.5440423e-07 -2.139254e-07 -1.170252e-07 9.5754274e-08
5.413406e-08 -2.4996277e-07 -5.8134435e-07 -3.5202795e-08 -1.2919867e-07 -1.2197957e-07 -4.5616193e-07 2.2844833e-07
-2.0677221e-07 -1.9831735e-07 -7.7068415e-07 3.543119e-07 -1.5066823e-07 -6.7265966e-09 -4.211684e-07 4.3390887e-08
-0.007406838 -0.028488878 -0.014451077 -0.0138949705 0.010686539 -0.015583698 0.0028576492 0.0067621097
0.02328495 -0.0004312218 0.01917738 0.023876922 0.01864173 -0.0016624924 0.016424753 0.0186498
-0.04920719 -0.049550064 -0.0036106247 0.0072043594 -0.0039913277 -0.022836132 0.026284333 0.039959792
-0.00955786 -0.014927763 0.005829515 0.027038705 0.0010052576 0.0066576735 -0.000226519 0.001655583

3.bias f4 [64]
00000000: 110a d7bd 230a d73d 509c 1ebe 4d9c 1e3e
00000010: e159 1dbe e159 1d3e 206f 4d3d 206f 4dbd
00000020: 3473 77be 2e73 773e 7460 9c3d 6b60 9cbd
00000030: 11f0 543d 23f0 54bd 0cdc a9bd 03dc a93d
00000040: a0f2 c3bc c6f2 c33c 78d9 f63d 99d9 f6bd
00000050: 419f 893e 439f 89be beb5 6dbd f2b5 6d3d
00000060: 7d93 9cbe 7493 9c3e 59f4 d0bd 75f4 d03d
00000070: 92e5 42bd b5e5 423d 837c 03be 8b7c 033e
00000080: 9b84 8d3d 8384 8dbd 14c0 4dbe 39c0 4d3e
00000090: 09c3 00be 11c3 003e 5261 2ebd 7d61 2e3d
000000a0: b5a0 9dbd c2a0 9d3d d780 8dbd e280 8d3d
000000b0: ef00 0cbe ea00 0c3e 3672 7cbb 3471 7c3b
000000c0: aa9c 483d af9c 48bd 2b2f 353e 1e2f 35be
000000d0: 0bfa bfbd 0ffa bf3d 6772 fabd 2872 fa3d
000000e0: 9bde 35bd 3fde 353d 1b6e 21bb 6f6e 213b
000000f0: 3793 68be 3a93 683e f841 8dbc 8041 8d3c
-0.10499967 0.1049998 -0.15489316 0.15489312 -0.15366317 0.15366317 0.050154805 -0.050154805
-0.2416504 0.24165031 0.076355845 -0.07635578 0.051986758 -0.051986825 -0.08293924 0.08293917
-0.023919404 0.023919474 0.120531976 -0.12053222 0.26879314 -0.2687932 -0.05803465 0.058034845
-0.30581275 0.30581248 -0.102028556 0.102028765 -0.047582217 0.047582347 -0.12840466 0.12840478
0.06910058 -0.0691004 -0.20092803 0.20092858 -0.125744 0.12574412 -0.04257328 0.04257344
-0.07696668 0.07696678 -0.0690934 0.06909348 -0.13672231 0.13672224 -0.0038520223 0.0038519623
0.04897753 -0.04897755 0.17693774 -0.17693755 -0.09373864 0.09373867 -0.12228852 0.12228805
-0.044401746 0.044401404 -0.0024632278 0.0024632474 -0.22712408 0.22712412 -0.01724337 0.017243147

4.weight f4 [64]
00000000: cc24 003f 4348 103e e25c a43e 6bee 063f
00000010: 0f3f e63e d6c2 0d3f f6ad ed3e 99c4 9b3e
00000020: 3663 d83e 9d90 f13e 074a d63e 083a de3e
00000030: 6fd6 c23e 79e6 963e 5d23 dd3e 8ba9 993e
00000040: b267 5f3e ded8 ea3e 0863 e53e 73fe a93e
00000050: de6d 023f 77f8 b33e b475 a63e 855a ca3e
00000060: a413 c83e a17c 2a3f a5e5 a63e cf0a 133f
00000070: 3ea6 c23e 9e61 dc3e 364c cb3e 9720 0b3f
00000080: 39f3 aa3e cf88 d33e 8dde de3e 5043 fe3e
00000090: dc1a 1b3f ad5c b43e 3840 3e39 56ca 0c3f
000000a0: 58fd 053f 26a0 ae3e 1a82 dd3e f6b8 3a3e
000000b0: 4a61 dc3e 0378 ff3e 72ae e03e c0e2 e93e
000000c0: 4f45 b63e b14e c23e ea39 d83e 3dc6 e73e
000000d0: 2a2a b83e b11a c63e 99b0 a43e 9a15 ce3e
000000e0: ed9b b73e f8a7 d43e 38a5 af3e b5db f038
000000f0: 3283 cb3e 6be6 f33e b06f e53e a977 d83e
0.5005615 0.14090066 0.32102114 0.52707547 0.44969985 0.5537542 0.46421784 0.3042343
0.42263192 0.47180644 0.41853353 0.4340365 0.38054225 0.29472712 0.43191043 0.30012164
0.218169 0.45868582 0.44802117 0.33201942 0.50948894 0.351505 0.32511675 0.39522186
0.39077485 0.6659642 0.3259708 0.5743837 0.38017458 0.43043226 0.39706582 0.54346603
0.3338869 0.41315314 0.43529168 0.4966073 0.6058786 0.35226956 0.00018143735 0.5499624
0.52339697 0.3410656 0.43263322 0.1823462 0.43042976 0.4989625 0.4388309 0.4568081
0.35599753 0.37950662 0.42231685 0.4526843 0.3596967 0.3869224 0.32165983 0.40250856
0.3586115 0.415344 0.3430574 0.000114850154 0.39748532 0.47636732 0.44811773 0.42278793

4.bias f4 [64]
00000000: 0d1a a93e a605 18be 4921 a53c c3d5 05bf
00000010: 7bbd 50bc fbb2 06bf 412d 12bf 7039 20be
00000020: d0d5 113e f636 02bf 6c47 eebe 9fbe cebd
00000030: ef83 c0be 4cce 473d 1bb5 4cbe 177d 12be
00000040: 6fb2 f7bd dcfa 09bf 1add f8be bd46 cbbd
00000050: 9df7 13bf b426 173e 135e ae3d bc6b f6be
00000060: 347c f83d bf9a 2cbf a263 c5be 775e f7be
00000070: cf1a 973d 4111 04bf cc98 c33d 5c2a 08bf
00000080: 85a9 4abe 3c91 acbe 6060 f83d fc73 eabe
00000090: 01d9 a53e 00e9 a2be b6ba b6ba eb77 4cbf
000000a0: 959c b73e 9b19 b1be f710 803e 5287 2ebe
000000b0: 3068 943e 4fee f9be 23d6 3e3e 3416 f7be
000000c0: 4701 b5be c29f 70be 1363 edbe e19a 953e
000000d0: 9285 0fbe c509 bcbe fbc7 a1bd b8e2 ddbe
000000e0: c456 94be 8c63 8bbe 0232 93be 7a04 21ba
000000f0: 8bae 503e 0485 01bf dc3a 9c3e 11ee ecbe
0.33027688 -0.14845905 0.020157473 -0.522793 -0.012740488 -0.5261685 -0.571003 -0.1564691
0.14241719 -0.50865114 -0.46538866 -0.10094952 -0.37600657 0.048780724 -0.19990961 -0.1430553
-0.120945804 -0.53898406 -0.48606187 -0.09925602 -0.577997 0.14760858 0.08514037 -0.4812907
0.12133065 -0.67423624 -0.38552576 -0.48314258 0.0737816 -0.5158883 0.09550628 -0.53189635
-0.19791229 -0.33704555 0.12127757 -0.45791614 0.32392123 -0.3181839 -0.0013941142 -0.7987048
0.3586165 -0.34589848 0.25012943 -0.17043808 0.2898574 -0.48814628 0.18636374 -0.48259127
-0.35352537 -0.23498443 -0.4636465 0.29219726 -0.14015797 -0.36726204 -0.07899471 -0.43337035
-0.28972447 -0.27224386 -0.2874909 -0.00061423297 0.20379083 -0.5059359 0.30513656 -0.4627538

6.weight f4 [64, 64, 4, 4]
00000000: c255 ebba bab6 563d 817b dd3b 90eb 373c
00000010: a9fd a93d daac 843d f5c1 21bd 00f3 1cbd
00000020: 4c28 833d 1fab 733d 55f6 87bd f07c a3bd
00000030: acef 263d 60c9 b43c 1a04 27bd 9562 60bd
00000040: 8f96 aa3b 4443 a83a d5dc ae3b 2b67 813b
00000050: d7ed 823b 469b 30bb fd93 86bb 03fb cabb
00000060: 48a8 273b 2185 aebb c104 23bc d5cc 4ebc
00000070: 9d39 07ba 7d3e 27bc f2f8 70bc ccca 92bc
00000080: 07d3 4abd 01e6 f73c 867b a43d 7202 b63d
00000090: 41fb 93bd d64c 3a3d cb2b cf3d 0fc7 e13d
000000a0: 9bb3 c5bd 0b6e 8a3c 570e af3d 1d00 c63d
000000b0: 260c a0bd 7e5d 10ba e350 423d 98fc 463d
000000c0: 5a27 b3bd bcf7 ccbd e46b 12bd 04e8 0a3d
000000d0: c106 55bd b959 44bd f393 a0bb c358 103d
000000e0: 6b57 743c 21ab fe3b bc71 b93c 4392 b0bb
000000f0: 26fe fbbc 4db1 d13c b697 fbbb e0b2 dcbc
00000100: dca1 a6bc 659c 08bc 6627 83bc 9a48 17bd
00000110: 6f39 303c 4160 8abc c777 21bd 8bcd 01bd
00000120: 8a4e 6c3c 6b42 c43b c78a e1bc 7ff1 04bb
00000130: d308 893c 4e91 393c acb1 8fbc 7654 1cbd
00000140: 4769 a93d ed83 b53c f47c 0b3d e272 013c
00000150: 7170 5b3d f5cb 843d dbea 33bd ddc9 78bd
00000160: b5e0 f7bc 6499 40bd 20fc d9bd cf0c c4bd
00000170: 5b2c d2bd 0038 bdbd 50a1 01be af2a f2bd
00000180: 5d7a 103c 8b9f 803b 20ed ed3c a316 383c
00000190: d0a7 4dbd 0a55 8cbd 30fe d8bc 51db 51bd
000001a0: b6b3 8dbc 4911 5dbd d838 0fbd 3b4b d8bc
000001b0: 7428 d23b 0346 55bd da04 1cbd d54f 46bd
000001c0: e84d c73b c0d9 b33c 9de6 b73c aaeb 9c3b
000001d0: da4c b03b bb81 a03c ff34 cd3c f4fa c6bb
000001e0: 95a7 c63c c8c0 183d 1304 db3b 6b52 9e3b
000001f0: e99b ea3c e4a6 b73c 6d90 453d 123d 5b3c
00000200: a060 f0bc 8f5f 8ebd 06ad 8dbd 181a 4abc
00000210: 236e bfbc cbff b5bd 136c 20bd d6d3 b43c
00000220: ab92 ecbc 642d 50bd ced5 a8bd 0afb 8cbc
00000230: a122 323c d591 4ebd 5191 0fbd e207 4abd
00000240: 3a89 7cbd 3609 873c 68fc b13c 139f adbc
00000250: 817a d6bc 84f8 3e3d d895 583d e537 443d
00000260: cb09 77bd cf85 04ba e6a7 d83c b9a1 05bc
00000270: 04b3 7ebd 29dd 95bc d0d2 b0bc 6181 15bd
00000280: f374 cfbc 3369 a03b 4352 3b3c 502a a33c
00000290: c372 423d eca8 343d 4666 dd3c 98e6 573c
000002a0: 2e41 9f3d d5eb 873d 9b1b 5f3d ecd9 523d
000002b0: 2bda 8fbc eac3 343d c02d 8d3c e3d0 9d3c
000002c0: 6057 b1bc 2e3e e7bc d9e3 29bd f3b4 ecbb
000002d0: c1ab 01bd ae1b d5bc b212 a8bc 08a5 76bb
000002e0: 63aa 743c 33fc 903c 082f fa3c 0640 953d
000002f0: 9fca da3c d62d 2c3d 704d 383d e7d4 8e3d
00000300: 0dec 71bd 58e7 9e3b 6bf9 4f3d cac0 b63c
00000310: 7cd5 5ebd 996c 50bc 569e ac3c cbfc 18bc
00000320: 03bc 6cbd 40de b8bc 73d8 bfbc 1d89 7fbd
00000330: 51b7 11bd 7b60 eebc 11f1 11bd 778f 8fbd
00000340: 7626 2e3c 8857 133c 3f4b 2b3d db8c 843d
00000350: 30ed 41bc 4af5 51bc 8d83 20bb 1217 a83c
00000360: e6be 89bc ca28 b03c 5b29 073d e842 e13c
00000370: 0db5 69bd de47 6dbc 342b 9ebc fc84 bbbc
00000380: ae30 e23c 3ddf 213d 09e7 223d bd5a 093d
00000390: 2183 9fbb 2518 803a d5e5 4dbc a308 4b3c
000003a0: fd99 143c 59a1 e13c 4350 b03c 31e3 403d
000003b0: a503 99bd a232 17bd 9297 8cbc e641 7f3c
000003c0: 8f65 8c38 7803 0cbd 6650 33bc c2fd 46bc
000003d0: b60c 463c 88c8 22bc 8f0a b23c 602f fd3b
000003e0: 3bd6 9e3c 0b8d 023c 2eed df3c 2c65 afbb
000003f0: f71e 25bc 091e ffbb 6db8 db3c c1ad 00bc
-0.0017954635 0.052420355 0.0067591076 0.011225596 0.08300335 0.06478281 -0.039491612 -0.03831768
0.064041704 0.059489366 -0.06638781 -0.07982814 0.040755913 0.02206868 -0.040775396 -0.054781515
0.0052059363 0.001283743 0.005336384 0.003949066 0.003995638 -0.002694802 -0.004106997 -0.0061944737
0.0025582481 -0.005325929 -0.009949864 -0.012622078 -0.00051584264 -0.010207769 -0.014707791 -0.017918967
-0.049517658 0.030261042 0.08031373 0.08887185 -0.07225657 0.045483433 0.10115775 0.110242955
-0.09653398 0.016898176 0.08547657 0.0966799 -0.07814817 -0.00055070955 0.04744042 0.048580736
-0.0874774 -0.10008189 -0.035747424 0.033912674 -0.052008394 -0.04793713 -0.0049004494 0.0352409
0.01491342 0.007771865 0.02263724 -0.0053885295 -0.030760836 0.025597239 -0.0076779975 -0.026940763
-0.020340852 -0.008338069 -0.016009998 -0.036934473 0.010755881 -0.0168916 -0.03942087 -0.03169016
0.014423022 0.005989363 -0.027531995 -0.0020285544 0.01672784 0.011326147 -0.017540775 -0.038166486
0.08272033 0.022157634 0.03405471 0.007900925 0.05357403 0.06484214 -0.043925148 -0.060739387
-0.030258516 -0.047021285 -0.10643792 -0.095727555 -0.102623664 -0.09239197 -0.12659192 -0.118245475
0.008818236 0.003925269 0.029043734 0.011235866 -0.050208867 -0.068521574 -0.026488394 -0.051234547
-0.017297607 -0.053971563 -0.03496632 -0.02640306 0.006413514 -0.05206872 -0.038090564 -0.048415978
0.006082285 0.021954417 0.022448832 0.0047888355 0.005380255 0.01959311 0.025049685 -0.0060723964
0.024249831 0.037293226 0.0066838353 0.0048316023 0.028638797 0.022418447 0.04823344 0.0133812595
-0.02934295 -0.0695182 -0.06917767 -0.012335323 -0.023367947 -0.08886679 -0.039165568 0.022073667
-0.02887853 -0.050824538 -0.08243905 -0.017209549 0.010872514 -0.050432045 -0.035050694 -0.049323924
-0.061654307 0.016483884 0.021726802 -0.021194017 -0.026181461 0.04662372 0.052877277 0.047904868
-0.060312074 -0.00050553394 0.026447248 -0.0081562335 -0.06218244 -0.018293934 -0.021584898 -0.03650034
-0.02532432 0.004895353 0.011433187 0.019917637 0.047472727 0.04410641 0.027026307 0.013177536
0.07776104 0.06636778 0.054469686 0.051477358 -0.017560085 0.04413215 0.01723373 0.019264644
-0.021648109 -0.028227892 -0.041477058 -0.0072237193 -0.031657938 -0.026014175 -0.020516727 -0.0037634987
0.0149332015 0.017698383 0.030540004 0.07287602 0.026707945 0.0420359 0.044995725 0.06974202
-0.059063006 0.0048493557 0.050774973 0.022308726 -0.054402813 -0.012721204 0.021071594 -0.009337614
-0.05779649 -0.022566915 -0.02341864 -0.06238662 -0.035575215 -0.02909874 -0.03563029 -0.070097856
0.010629287 0.008993037 0.041819807 0.064721785 -0.011836335 -0.012814829 -0.0024492473 0.020518813
-0.01681466 0.021503825 0.032998424 0.027497724 -0.05705743 -0.0144824665 -0.01930771 -0.02289056
0.027611103 0.039519537 0.039771114 0.0335338 -0.0048679267 0.0009772821 -0.012567003 0.012392196
0.009069917 0.027542757 0.021522647 0.047091667 -0.07471398 -0.03691352 -0.017162118 0.015579676
6.694637e-05 -0.034182996 -0.010944461 -0.0121454615 0.012087991 -0.009935506 0.02173355 0.007726595
0.019389262 0.007968198 0.027334776 -0.005352637 -0.010078183 -0.007785563 0.02682134 -0.007853926

6.bias f4 [64]
00000000: 1979 bbbd 295b bb3d 83dc 5dbd 2926 5e3d
00000010: 5cb9 cdbd 1fa8 cd3d d73d a23d 343c a2bd
00000020: 3821 9dbc 9b39 9d3c bf59 d93c 1679 d9bc
00000030: 9792 52bd 6c56 523d c857 dabd 415f da3d
00000040: a8d7 9dbd c2cc 9d3d 4d33 a4bd 0f42 a43d
00000050: b8a6 3a3d edb4 3abd 46b6 bbbd a8b5 bb3d
00000060: 6a17 adbd 4a0c ad3d 3b1f a13b df15 a1bb
00000070: db0b 033d 0921 03bd 511e 5e3c 7c55 5ebc
00000080: 942e 573d 6d51 57bd 5dae 3f3e adca 3fbe
00000090: bfb8 1f3d d3d4 1fbd a64b be3d 9366 bebd
000000a0: 7b6b 24be 1576 243e 7d68 e1bd b34e e13d
000000b0: 276a 163d 0998 16bd 5822 103e 2322 10be
000000c0: 7e58 96bb b75f 953b 7767 403b cb49 43bb
000000d0: 2bef 87bd 11e3 873d a16e 9d3b 8c0f 9fbb
000000e0: d776 943d e29a 94bd b0ef de3d e001 dfbd
000000f0: eb1d 6f3e c227 6fbe 331d f83d 2606 f8bd
-0.09153957 0.09148247 -0.054165374 0.05423561 -0.1004512 0.10041832 0.07921951 -0.07921639
-0.019180879 0.019192507 0.026532052 -0.026546996 -0.05140933 0.05135195 -0.10661274 0.106626995
-0.07707149 0.0770507 -0.08017597 0.08020412 0.04556915 -0.0455827 -0.09165625 0.091655076
-0.084517315 0.084496096 0.004917053 -0.0049159373 0.031993728 -0.032013927 0.013557033 -0.013570186
0.052534655 -0.052567888 0.18718858 -0.18729658 0.038994547 -0.039021324 0.092917725 -0.09296908
-0.16056626 0.1606067 -0.11006258 0.11001339 0.03672233 -0.036766086 0.14075601 -0.14075522
-0.004588186 0.0045585292 0.0029358545 -0.0029798623 -0.066374145 0.06635106 0.0048044478 -0.0048541483
0.072492294 -0.07256104 0.108855605 -0.108890295 0.23351257 -0.2335501 0.12114944 -0.12110548

7.odefunc.norm1.weight f4 [64]
00000000: fa3e f03e dbfd 183f e544 0b3f 0fee db3e
00000010: 3fee 2c3f e3b5 0f3f a2b6 0a3f 59e6 f23e
00000020: 205a 113f d204 ea3e 49f0 023f 419b e23e
00000030: 3ae0 ef3e e031 fc3e c14e 163f 8abe d43e
00000040: b221 133f d8cb 003f b19b e03e 8fa3 133f
00000050: 5e2c e03e c022 1e3f 1faf 123f 963a 2d3f
00000060: 226e 0f3f 5d81 273f 9d37 f23e 8ae7 1a3f
00000070: 08a0 0c3f 8eea 053f a32a e93e 740f 0a3f
00000080: 2822 1a3f 9328 ba3e 7bfb 113f c837 113f
00000090: 2c1d 193f 0c0d 043f b4e0 143f 1a52 2a3f
000000a0: 7424 d63e 7ff3 ed3e ac4e 353f 28e7 023f
000000b0: a4f5 273f 15f3 003f 34f7 1a3f 5b28 313f
000000c0: fdcb e83e 9832 263f 217a 253f eef0 0f3f
000000d0: d00d 153f 328f fe3e b3f8 0d3f d63d 053f
000000e0: 2ecd f23e c917 003f 442b ea3e bd91 173f
000000f0: a253 103f ad4e ed3e 4716 e43e 275d 153f
0.46923047 0.5976235 0.54402 0.42955062 0.67551035 0.5613691 0.54184926 0.47441366
0.56778145 0.45706803 0.51147896 0.44259074 0.4685076 0.49256802 0.5871392 0.4155162
0.5747329 0.5031104 0.43868783 0.57671446 0.4378385 0.61771774 0.57298464 0.6766752
0.56027424 0.6543177 0.47308055 0.6050955 0.5493169 0.5231103 0.45540342 0.5392983
0.6020837 0.3635908 0.57024354 0.5672574 0.5981014 0.5158241 0.5815537 0.6653153
0.41824687 0.46474835 0.7082317 0.51133966 0.6560919 0.50370914 0.6053345 0.692022
0.4546813 0.6492095 0.6463948 0.56227005 0.582242 0.49718624 0.5545761 0.5204748
0.47422165 0.50036293 0.45736134 0.59206754 0.56377614 0.46349087 0.44548246 0.58345264

7.odefunc.norm1.bias f4 [64]
00000000: 4027 44bd 6d54 f8be 1a14 e7be a52c 5abe
00000010: b8c0 893d 4275 bfbe d767 73be e7af 933e
00000020: 6638 c2be a619 9dbe 2040 b5be 481e 98bc
00000030: 3f6f 20be eb62 94be 004a 26be f346 6cbe
00000040: 0917 e1be 3320 5fbe 2a7d acbe 07ff 18bd
00000050: 2bae a8be 498c 93bd 2db2 13bf b854 f83d
00000060: 8729 febe 1fb5 f4bb d0d5 d5be d5d4 adbe
00000070: d02d afbe 145c e3bd 9e58 bdbc 0154 d3be
00000080: c16c 5bbe 98b7 89be 0824 04bf 422f 0cbe
00000090: 5370 ad3c 152b c0be 5715 3ebe de3a e5be
000000a0: 8cca 9ebd ecc0 e0be a65f 11bf 1696 75bd
000000b0: 8ee6 22bf cf4a 52bc 57b3 babe e0f4 a33e
000000c0: e9b6 82be c166 7cbe 7b0a 01bf 2c26 86be
000000d0: e94c 1ebe f68a 4cbe 78e2 41bd 76a7 9dbe
000000e0: caef 1fbe edbf 64be 778d 45bd 3834 f9be
000000f0: 6fda c2be 418e 64be 5982 cfbe 8e7d a6be
-0.047888994 -0.48501912 -0.45132524 -0.21306093 0.06726211 -0.37394148 -0.2377008 0.2884514
-0.37933654 -0.3068363 -0.35400486 -0.018569127 -0.15667437 -0.28981718 -0.16239166 -0.2307394
-0.43962887 -0.21789627 -0.33689243 -0.037352588 -0.3294538 -0.07204492 -0.5769375 0.12125534
-0.49641058 -0.0074678804 -0.41764688 -0.3395144 -0.3421464 -0.11101547 -0.023113545 -0.41275027
-0.21428205 -0.26897883 -0.5161748 -0.13689902 0.021171724 -0.3753287 -0.18562828 -0.44771475
-0.077534765 -0.43897188 -0.5678657 -0.059957586 -0.6363305 -0.012835219 -0.3646495 0.32022762
-0.25530174 -0.24648573 -0.50406617 -0.26200998 -0.15459026 -0.19974884 -0.047335118 -0.30791825
-0.15618816 -0.22338839 -0.048230615 -0.48672652 -0.38057277 -0.2231989 -0.40529135 -0.32517666

7.odefunc.conv1._layer.weight f4 [64, 65, 3, 3]
00000000: 1154 f0bc f95d 5dbd 9cfe 78bd 140a 953b
00000010: 8e34 3cbc 25b3 49bd 4309 713d 5748 1f3d
00000020: c695 a7ba 0d43 9d3c 050e ca3c a6e9 8ebc
00000030: 69f1 7d3d 88a2 bf3d ef8a d3bd 1d8d 81b9
00000040: 65b3 613d 0001 ecbd 90f2 303d 92f7 cc3c
00000050: f10b 6cbd dfbb 893d 28c0 82bc d1ea c63c
00000060: cfb3 5cbb 9167 7a3d d1cc 713d b626 e2bb
00000070: 5f80 ebbd 7249 9dbd 9ec2 513c f865 cebd
00000080: 9c0a 71bc c27e 063e 57da 373d b423 143e
00000090: 3dc6 97bc 3002 47bb 4e34 03bd 7b67 113d
000000a0: 4e60 24bd abbc babd 8171 aa3d a417 1cbb
000000b0: bd44 833d df99 da3c b6d0 fc3c 7464 d8bd
000000c0: e68e 733d a1a9 f33d 52a2 52bd 97de 1a3b
000000d0: 8aae 013e e6f8 0fbc fa13 9abc 67db f6bc
000000e0: 3279 cf3d 4cf1 df3c b8d2 54bd c287 9d3d
000000f0: d7ba 9d3c 2104 d3bd d403 c0bc f370 d23c
00000100: e646 1fbe 40f9 19be 61ed 96bd 11a6 09be
00000110: e676 18be 50b7 ae3d 45db 8fbd f603 5fbd
00000120: 941f 923d 0f9d 383d 2feb 773d 7850 51bd
00000130: 5015 e73c e1f9 303d 812b 1dbd e33e 43bd
00000140: de15 38bc 8435 16b9 2242 cfbc f46e 173e
00000150: e779 3abc 0626 83bd 8596 6a3d cbef 813c
00000160: 3e18 eb3c 8c09 8b3d 137a 393c 31d5 143d
00000170: 70ae 06bb 771b 5abd 74b8 3c3a 6e5c 8a3a
00000180: 2330 743b 4f4a 2bbd 9999 efbb 3457 0fbd
00000190: 2a61 bcbd 47b2 babc 3d16 88bc 7d45 babc
000001a0: 733b 0bbd bd43 44bd 77c8 b43c 6779 733d
000001b0: 4f92 763c 7b09 733c 5b0b 543d 3240 cc3d
000001c0: 56cb 803d d670 a73a 7472 2c3d f5ab 49bc
000001d0: fcee 50bd 5dc2 a6bd 7820 01be 843a 0dbe
000001e0: 88d9 083c c979 b2bd d628 8abd 2818 6e3d
000001f0: 8978 413e f27a eb3d 2fd7 70bd 92e0 b23a
00000200: a236 dfbc 0bb1 eebd d04b 9dbd 2272 40bc
00000210: 6904 e3bc 3687 0ebc a65f 7fbb 90a4 023e
00000220: 6104 073e c497 373d 24b7 f83d 6980 dd3d
00000230: c6e9 433d 5918 e63b 53ee 1cbc a2a7 403d
00000240: dbcd ea3b 76e9 a5bd d5c1 5cbd 8bd4 6ebd
00000250: e78f 96bd 4f5c 7dbd 3b51 d3bd 55ca 51bd
00000260: de4f cebc b66f ea3c 6c69 9dbd 2652 8ebd
00000270: bdb0 2abc cc2b 76bd cc0c 6e3d 4f2c 073b
00000280: 896e 8dbd 9834 bc3d b780 86bd 1e8c afbd
00000290: 11c9 9bbd c7e6 943c ef3f 5f3d 727c bdbd
000002a0: 5edf 3c3c dee2 d33d 37f9 2ebd f733 043d
000002b0: 89ec 253d 79b9 313d ea39 613c 3817 663b
000002c0: 694f b1bc 3467 12bd e55a a33a 5ef6 cfbc
000002d0: 5a23 2b3d 13e7 143e 3115 bcbd 5b07 9dbd
000002e0: b804 543e d6be 89bd 612d 313d 8aca de3d
000002f0: ece4 e43c 3aaa 533d dc2c c53c 99a9 4ebd
00000300: 9482 cbbc 0d21 e13c a88c 0d3d dfcc f1bc
00000310: 3ba8 e63c 5b1c 133a 5f72 31bc 0f8c f03c
00000320: 9b97 8e3d 938b ee3b d46a 64bd 6af0 85bc
00000330: 4aee 11bd 31df eabd 7b41 583c 4a57 e2bc
00000340: 1ae7 7ebd 393a b2bc d3c3 2dbd 8fff 053c
00000350: dae3 06bd 30f6 8fbd 935e 673c b037 8ebb
00000360: 4157 053d 188b 0c3e 09fd 593d 4d9e 283d
00000370: 3392 9c3d 64f2 5cbd 38d7 c93d 2066 a93d
00000380: 99ba ddbd 28d5 0bbd f9bd a4bd 39b6 53bd
00000390: 2c16 e4bd 5db3 15be fd3a 9cbd 9978 18bc
000003a0: ebc8 d3bc b0ce ce3c cd53 ac3d 1014 923c
000003b0: e385 3d3b bd72 923d 3425 653e 387e 8fbd
000003c0: e6eb b1bd 75a6 203d 597d 2ebe 55a9 403d
000003d0: 465e 003c 185c b9bd 089f bebd dd99 eebb
000003e0: a419 0bbe f405 01be cbb9 7cbc 47bf 423d
000003f0: 9014 743c 1071 09bd 21c9 a83c bfde 3c3c
-0.029336961 -0.054044697 -0.06078969 0.0045483205 -0.011487139 -0.04924311 0.058846723 0.038887348
-0.0012785725 0.019197011 0.024664888 -0.017445397 0.061997805 0.09357172 -0.10329234 -0.00024709935
0.055102725 -0.11523628 0.043200076 0.025020394 -0.057628576 0.06725287 -0.015960768 0.024281891
-0.003367651 0.061133925 0.05903322 -0.0069015874 -0.11499094 -0.07680024 0.012802748 -0.10078043
-0.014712002 0.13134292 0.04488596 0.14466745 -0.018527145 -0.0030366294 -0.032032304 0.035499077
-0.040130906 -0.09118017 0.083224304 -0.0023817802 0.06409595 0.0266847 0.03086124 -0.10566035
0.05946245 0.118975885 -0.051424332 0.002363121 0.12664238 -0.008787369 -0.018808354 -0.030133916
0.10130538 0.027336739 -0.05195877 0.076919094 0.019254131 -0.10303522 -0.023439325 0.025688624
-0.1555439 -0.15036488 -0.07369495 -0.13442256 -0.14889106 0.08531058 -0.07024244 -0.054447137
0.07134929 0.045071658 0.060527023 -0.05110213 0.028208405 0.043207053 -0.038371567 -0.047667395
-0.011235682 -0.00014325051 -0.02530009 0.14788419 -0.011381603 -0.06403737 0.057272453 0.015861413
0.028698083 0.0678893 0.011320609 0.036336128 -0.002055075 -0.05324885 0.00071991165 0.0010556111
0.0037260137 -0.041818913 -0.0073120114 -0.034995273 -0.0919822 -0.022790087 -0.016612167 -0.022738213
-0.033992242 -0.047916163 0.022068245 0.05944195 0.015049531 0.014833803 0.051768642 0.09973182
0.06288783 0.0012774717 0.04210134 -0.012309064 -0.051009163 -0.081425406 -0.12610042 -0.13791853
0.008352645 -0.08714635 -0.0674607 0.058128506 0.18893637 0.11498059 -0.058798965 0.001364725
-0.02724773 -0.11654862 -0.07680476 -0.011745961 -0.027712064 -0.008699229 -0.0038966923 0.12758088
0.13185264 0.04482247 0.12144306 0.10815508 0.047830366 0.0070219454 -0.009578305 0.047034867
0.007165653 -0.0810117 -0.05389579 -0.058308166 -0.07351666 -0.06185561 -0.10318228 -0.05121835
-0.025184568 0.028617721 -0.07686123 -0.06949262 -0.010418114 -0.06010036 0.058117673 0.0020625775
-0.069058485 0.09189719 -0.06567519 -0.08571647 -0.0760671 0.01817645 0.05450433 -0.09252252
0.011527864 0.10346006 -0.04271814 0.03227612 0.04050878 0.04338977 0.013746718 0.0035109054
-0.021644311 -0.035742953 0.0012463002 -0.025386032 0.04178176 0.14541273 -0.091837294 -0.076674186
0.20704925 -0.06725852 0.043256167 0.10878475 0.02794119 0.051676013 0.024069242 -0.05045471
-0.024842538 0.02748158 0.03455797 -0.029516635 0.02815639 0.000561183 -0.010830491 0.02936366
0.0696251 0.007279822 -0.05576594 -0.01634999 -0.03562764 -0.11468352 0.0131992055 -0.027629513
-0.062232114 -0.021756278 -0.04242308 0.008178606 -0.03293214 -0.070293784 0.014121669 -0.0043401346
0.032553915 0.13724935 0.05321983 0.041166592 0.07645073 -0.0539421 0.09855503 0.08271432
-0.10826606 -0.03413883 -0.08044047 -0.051687453 -0.111370414 -0.14619203 -0.076284386 -0.0093060965
-0.025852641 0.02524504 0.08414421 0.017831832 0.0028918914 0.07150791 0.22377473 -0.07006496
-0.08687572 0.039221246 -0.17040004 0.047036488 0.007834977 -0.090507686 -0.093076766 -0.0072815255
-0.13584 -0.12599927 -0.015425156 0.047545698 0.014897481 -0.03355509 0.020603718 0.011527716

7.odefunc.conv1._layer.bias f4 [64]
00000000: 0436 a0bd f435 a03d b80b 3cbd d20b 3c3d
00000010: 9a3d 89bd 883d 893d d4e0 26bd dee0 263d
00000020: bb8f cb3b 0693 cbbb 63f6 3cbd 3ef6 3c3d
00000030: ba18 063d de18 06bd 759c 4dbd 749c 4d3d
00000040: 322b bb3c 572b bbbc 46fd 3fbe 35fd 3f3e
00000050: efdd ad3d f2dd adbd 2940 dabd 2540 da3d
00000060: 12af dbbd e7ae db3d 76b5 9f3c 54b5 9fbc
00000070: abe5 18bd cae5 183d a607 973c ae07 97bc
00000080: d8bb 0e3d b2bb 0ebd 2584 86bc fa83 863c
00000090: aee4 053d 95e4 05bd eccf bc3d ffcf bcbd
000000a0: 57eb 94bc e0eb 943c d196 68bd e796 683d
000000b0: 9302 80bc 9b02 803c ad30 0c3b 8631 0cbb
000000c0: 4ecf 7bbe 5acf 7b3e d1e6 48be dde6 483e
000000d0: c9fe bb3d c2fe bbbd 0fb4 ba3d 0eb4 babd
000000e0: e0c7 833c 78c7 83bc 0295 85bd fe94 853d
000000f0: 40b8 36ba 64b6 363a 5c06 a13d 5606 a1bd
-0.07822803 0.07822791 -0.045909613 0.04590971 -0.06701203 0.06701189 -0.040741757 0.040741794
0.0062122024 -0.006212595 -0.04613341 0.046133272 0.032738425 -0.03273856 -0.050198037 0.050198033
0.022847746 -0.022847814 -0.1874896 0.18748935 0.08489596 -0.08489598 -0.10656769 0.10656766
-0.107267514 0.10726719 0.019495707 -0.019495644 -0.037328403 0.03732852 0.018436264 -0.01843628
0.03484711 -0.03484697 -0.016420433 0.016420353 0.03268879 -0.032688696 0.092193455 -0.092193596
-0.018178625 0.01817888 -0.056784455 0.056784537 -0.015626227 0.015626242 0.0021391318 -0.0021391823
-0.24590799 0.24590817 -0.196193 0.19619317 0.09179456 -0.091794506 0.09116375 -0.09116374
0.016086519 -0.016086325 -0.065225616 0.06522559 -0.00069702044 0.00069699273 0.07862541 -0.078625366

7.odefunc.norm2.weight f4 [64]
00000000: 92da c93e fb32 493f 6d59 1c3f d144 163f
00000010: 0eac 073f 4672 103f 8130 103f 8304 033f
00000020: 46d7 013f c3f7 083f 4b5f f93e 4d65 273f
00000030: 0922 203f 3f93 f93e 0200 ff3e 018f 213f
00000040: f134 463f 1c82 e43e 7f41 053f 3c6f 3f3f
00000050: cdc2 113f 7a63 103f 771c 2d3f 2c3b 133f
00000060: 4342 243f 576a 0b3f b73a f33e 4e31 313f
00000070: f0b0 1b3f 2ff7 f73e 92de 153f 561e 263f
00000080: 5998 f53e 48a3 033f db98 1b3f e5b0 023f
00000090: e974 2a3f 4d85 ea3e 28ce 2e3f 764e c63e
000000a0: 5084 ee3e 2bae 223f d9ef 0d3f 4c2a 173f
000000b0: be9d e63e 0c1d 0c3f 2dc4 1c3f 140b 063f
000000c0: 0934 133f 1660 2a3f 0929 323f d342 003f
000000d0: b35a 243f 3801 db3e 7593 133f 1bfa 0a3f
000000e0: 6ea3 123f 66e8 d73e 68da ff3e 5e25 413f
000000f0: f9e3 103f f5f7 d13e 6070 033f 8b67 233f
0.39424568 0.78593415 0.6107395 0.58698756 0.5299691 0.5642437 0.5632401 0.5117876
0.50719106 0.53503054 0.48705515 0.6538895 0.62551934 0.48745152 0.49804693 0.6310883
0.7742453 0.44630516 0.52053064 0.74779105 0.5693787 0.5640179 0.6762156 0.57512164
0.6416361 0.54459137 0.47505733 0.6921586 0.6081686 0.48430774 0.5854274 0.6489004
0.47967795 0.5142102 0.60780114 0.5105117 0.6658464 0.45804825 0.6828332 0.38731736
0.4658532 0.6354701 0.55444103 0.59048915 0.45042223 0.5473182 0.6123684 0.52360654
0.57501274 0.66552866 0.69593865 0.50101966 0.64200896 0.42774367 0.57646877 0.5428788
0.57280624 0.42169493 0.49971318 0.7544764 0.5659786 0.4100949 0.51343346 0.6382987

7.odefunc.norm2.bias f4 [64]
00000000: cdc7 1bbe 3024 68bf 144c b2be 676a 36bf
00000010: ebe1 abbe 3faf 16bf 10fc 2cbf 50eb 5cbe
00000020: 45e6 15bf 4fa7 87be 3afe c2bd e4a6 3cbf
00000030: 2751 33bf a648 67be 9311 b3be 219b 1fbf
00000040: c168 71bf 80f1 75be 3dae cdbd 4109 5fbf
00000050: 7873 c2bd a115 f1be 876f b8be 5205 12bf
00000060: cf5e 03bf fb7c d1be 24e7 7abe d0ec 3bbf
00000070: 0705 81be 5438 04bf 80e5 d5be 94e9 37bf
00000080: fdaf cdbe f2db f1be bb8e 1bbf 478a 92be
00000090: 7a60 51bf 469f a6be b1eb 34bf 083b 28be
000000a0: 1ac7 1ebe 073f f2be 32f4 8fbe 5ef8 19bf
000000b0: a72c c4be efac 09bf 887f 05bf efec f5be
000000c0: 51f6 17be e3fe 43bf 6ab2 f0be 434b 06bf
000000d0: 3156 34bf cf2e c4be 57f9 1bbf 59a6 ddbe
000000e0: 270b 29bf 0029 5ebe 5658 e9be fe84 32bf
000000f0: f506 1bbf 6eb1 82be 71d1 f8be 78c2 debe
-0.15212937 -0.9068022 -0.34823668 -0.7125611 -0.335708 -0.58861154 -0.67572117 -0.2157414
-0.5855449 -0.26494834 -0.09521146 -0.73692155 -0.70045704 -0.22586307 -0.34974346 -0.6234608
-0.94300467 -0.24017906 -0.10042999 -0.87123495 -0.0949468 -0.47086814 -0.3602259 -0.5703937
-0.5131654 -0.40915665 -0.24502236 -0.7340822 -0.25199148 -0.5164845 -0.41776657 -0.71840787
-0.4017333 -0.47238117 -0.60764664 -0.28621122 -0.81787837 -0.3254339 -0.70672137 -0.16428769
-0.15505639 -0.4731371 -0.28115994 -0.60144603 -0.38315317 -0.537795 -0.5214772 -0.48032328
-0.14840056 -0.765608 -0.4701112 -0.5245859 -0.7044402 -0.38316962 -0.6092734 -0.43290976
-0.6603264 -0.21695328 -0.45575207 -0.6973418 -0.6055749 -0.25525993 -0.4859729 -0.43507743
